mnist.pth (torch, 903153 bytes, 8 tensors)

conv1.weight f4 [32, 1, 3, 3]
0.043002225 0.15165243 -0.30040327 0.2857516 0.21413402 -0.08775091 -0.08989441 0.37036332
0.06194106 0.055676147 0.23052157 0.2210879 -0.286489 0.3976506 -0.25820455 -0.02864444
0.40976807 0.17908783 -0.0036909652 -0.26502097 -0.0506444 -0.28044045 -0.71534425 -0.33582672
-0.31224138 0.17148127 -0.31848264 0.3615318 -0.19358361 -0.1266504 -0.06732797 0.55918884
-0.28199416 -0.1919797 -0.07213311 0.46330097 -0.32654855 -0.51318455 -0.30698058 -0.039435312
0.36799702 0.38114983 0.22286627 0.007401211 -0.2004207 0.14715585 0.4723519 -0.26179287
0.3942338 0.04860383 -0.5286615 0.30025914 -0.16161348 -0.35597104 0.42367214 -0.038410515
-0.2559443 -0.29624507 -0.8956061 -0.052472528 -0.61261547 0.2380887 0.5106546 0.09293576
0.01577906 -0.0058533256 -0.0745421 0.45411673 0.46219885 -0.19597961 -0.57246053 -0.15757859
0.06798678 0.0031849155 0.086105146 -0.27841952 -0.04906125 0.0944769 0.30947128 0.061801016
0.30066866 0.04409204 0.43905255 0.49694175 -0.5072619 -0.16016662 0.66253805 -0.3718549
-0.591594 -0.025891067 -0.46125397 -0.14317307 0.25386688 -0.5097646 -0.2249213 0.40530574
0.06647544 0.41758695 0.21853149 0.06360267 0.017001653 -0.3043519 -0.013070621 0.31488413
0.34921062 0.0958211 0.033400286 0.23654638 -0.39103624 -0.6798536 -0.38054472 -0.019844176
-0.11375961 0.16278882 -0.2853756 0.1822379 0.29105613 -0.41392314 -0.1448711 0.37470168
-0.079026975 -0.17526352 0.3357627 0.03731456 0.3279806 0.04406761 -0.22663137 -0.3972487
-0.40751642 -0.099941626 -0.108265035 -0.16366944 0.49088016 0.23179069 0.44735664 -0.4275073
-0.46886703 0.05088813 0.37873518 0.050860465 0.19339895 0.38410884 0.16492343 0.047839023
-0.49680638 -0.26216665 0.48026296 -0.717593 -0.31708127 -0.3167954 0.027474837 -0.434179
-0.33647346 0.1522548 0.28687936 -0.16773082 -0.28464848 0.15706007 -0.33154318 -0.15762089
0.2708349 0.35419327 -0.28059638 0.1072849 -0.24613558 -0.2404685 -0.6116232 -0.36706126
-0.24969521 -0.23693481 0.032266464 0.43467346 0.40286615 0.26246285 0.03662783 -0.34541464
-0.5353256 0.04857984 -0.48811382 0.13972875 0.08038608 -0.21003787 -0.033508055 -0.1372049
0.23631914 0.14582019 -0.15766075 0.21878622 0.03012556 0.14069945 -0.29737666 -0.6193983
0.042124577 0.3665699 -0.015103644 -0.14383577 0.34007102 0.15115385 0.066981666 0.058675595
-0.03371166 0.013077088 0.037268784 0.21185398 0.09184936 -0.024748692 -0.18009838 -0.27322307
-0.25268757 0.34849733 -0.31762534 0.17078249 0.32224688 0.45021057 0.22282322 -0.16191897
-0.1120075 -0.012462467 -0.29036194 -0.26532888 -0.018104881 -0.12539284 0.050322413 -0.13978653
0.13409162 -0.05171406 0.05673325 0.27321395 0.22507663 0.2740353 -0.17233974 0.31675902
0.10596089 0.18541843 0.02671596 -0.4317959 -0.14694355 -0.031748097 -0.35252082 -0.067303434
0.41545892 0.36380786 0.322502 0.03477577 0.37160972 0.32748267 -0.06714534 0.20697314
-0.03698769 -0.34292758 -0.24414627 -0.07526815 -0.4264202 -0.26184687 0.050696194 -0.42340106
00000000: 1a23 303d c64a 1b3e 75ce 99be 094e 923e
00000010: f345 5b3e c0b6 b3bd 8f1a b8bd 43a0 bd3e
00000020: e9b5 7d3d ac0c 643d d90d 6c3e de64 623e
00000030: b0ae 92be dc98 cb3e 6333 84be bfa7 eabc
00000040: 1fcd d13e cd62 373e 1fe4 71bb d4b0 87be
00000050: 8170 4fbd e495 8fbe cd20 37bf 7bf1 abbe
00000060: 1ade 9fbe c998 2f3e 2810 a3be b21a b93e
00000070: c83a 46be a4b0 01be 3fe3 89bd 0027 0f3f
00000080: 8a61 90be 5496 44be 86ba 93bd c935 ed3e
00000090: 5f31 a7be 1060 03bf 8f2c 9dbe ec86 21bd
000000a0: 1b6a bc3e 1226 c33e 0e37 643e dc85 f23b
000000b0: 153b 4dbe 06b0 163e 1cd8 f13e b709 86be
000000c0: 03d9 c93e cf14 473d 5c56 07bf 91bb 993e
000000d0: 017e 25be d641 b6be 8eeb d83e 5854 1dbd
000000e0: 220b 83be 6fad 97be 7146 65bf 6fed 56bd
000000f0: 5ed4 1cbf 86cd 733e 43ba 023f 1b55 be3d
00000100: 1643 813c 41cd bfbb 87a9 98bd fd81 e83e
00000110: 54a5 ec3e e1ae 48be c68c 12bf 485c 21be
00000120: a73c 8b3d 04ba 503b e557 b03d 018d 8ebe
00000130: 73f4 48bd 1b7d c13d 0573 9e3e 1023 7d3d
00000140: 3ef1 993e db99 343d 7fcb e03e 266f fe3e
00000150: eadb 01bf b802 24be 189c 293f c463 bebe
00000160: b472 17bf 8119 d4bc 7b29 ecbe f69b 12be
00000170: d7fa 813e ef7f 02bf c551 66be 3c84 cf3e
00000180: 4724 883d f5cd d53e b8c6 5f3e 1e42 823d
00000190: 0d47 8b3c 03d4 9bbe 2826 56bc 7e38 a13e
000001a0: bccb b23e da3d c43d bdce 083d 3739 723e
000001b0: e735 c8be e30a 2ebf c2d6 c2be 4190 a2bc
000001c0: ccfa e8bd 1db2 263e c01c 92be 929c 3a3e
000001d0: 4f05 953e bced d3be 1759 14be e6d8 bf3e
000001e0: e5d8 a1bd 4878 33be 17e9 ab3e 27d7 183d
000001f0: 13ed a73e 3d80 343d 0e12 68be 2e64 cbbe
00000200: fea5 d0be 32ae ccbd 0fba ddbd f698 27be
00000210: a554 fb3e 8a5a 6d3e ee0b e53e 3de2 dabe
00000220: 570f f0be 1270 503d 94e9 c13e 1053 503d
00000230: 600a 463e eaa9 c43e b0e1 283e daf2 433d
00000240: 685d febe b53a 86be 07e5 f53e 2db4 37bf
00000250: 7a58 a2be 0233 a2be e912 e13c b64c debe
00000260: 4046 acbe afe8 1b3e dae1 923e a1c1 2bbe
00000270: 72bd 91be 5bd4 203e 07c0 a9be 5f67 21be
00000280: dfaa 8a3e d258 b53e 54aa 8fbe 30b8 db3d
00000290: f70a 7cbe 603d 76be 5793 1cbf 74ef bbbe
000002a0: 1ab0 7fbe 0a9f 72be d729 043d 858d de3e
000002b0: 7944 ce3e 8861 863e 1007 163d 30da b0be
000002c0: 190b 09bf a8fb 463d 0eea f9be 0e15 0f3e
000002d0: 75a1 a43d 2b14 57be be3f 09bd 717f 0cbe
000002e0: a5fd 713e e351 153e d271 21be 7f09 603e
000002f0: e1c9 f63c 8413 103e c141 98be e390 1ebf
00000300: d28a 2c3d 0daf bb3e 4675 77bc af49 13be
00000310: ca1d ae3e 13c8 1a3e af2d 893d d255 703d
00000320: 3d15 0abd 4841 563c 27a7 183d 40f0 583e
00000330: 841b bc3d c5bd cabc b66b 38be e5e3 8bbe
00000340: 4460 81be 3e6e b23e ca9f a2be 9be1 2e3e
00000350: 8bfd a43e 0082 e63e c52b 643e 16ce 25be
00000360: 3064 e5bd 602f 4cbc 52aa 94be 30d9 87be
00000370: b050 94bc fb66 00be e01e 4e3d 3324 0fbe
00000380: 504f 093e 1fd2 53bd 2061 683d b3e2 8b3e
00000390: 7d7a 663e 5b4e 8c3e d479 30be 3d2e a23e
000003a0: 0602 d93d 54de 3d3e 6edb da3c 5a14 ddbe
000003b0: 5f78 16be 4b0a 02bd 9c7d b4be 62d6 89bd
000003c0: 08b7 d43e 0645 ba3e fb1e a53e 0a71 0e3d
000003d0: a143 be3e cfab a73e 7f83 89bd c4f0 533e
000003e0: 6780 17bd 3494 afbe 7b01 7abe 3026 9abd
000003f0: c053 dabe cb10 86be d0a6 4f3d 06c8 d8be

conv1.bias f4 [32]
-0.23301882 -0.3762618 0.26451516 -0.2896368 0.07326617 -0.087372795 0.06675938 -0.005614466
-0.30189148 0.0013690501 -0.10276838 -0.252063 0.13484198 -0.23719431 0.08867682 -0.17841084
0.3100476 -0.19158794 0.29124084 -0.027062653 -0.023052264 -0.017601743 -0.058767077 -0.31699577
-0.22791076 -0.33204985 -0.13288496 -0.11242282 0.01785349 -0.13948254 0.26710832 -0.06420334
00000000: 7c9c 6ebe 63a5 c0be 886e 873e 464b 94be
00000010: 930c 963d 82f0 b2bd 24b9 883d 8ef9 b7bb
00000020: 8591 9abe b371 b33a 3a78 d2bd 670e 81be
00000030: 0414 0a3e 11e3 72be 319c b53d 55b1 36be
00000040: 8fbe 9e3e a12f 44be 851d 953e 7fb2 ddbc
00000050: 1ad8 bcbc 8831 90bc bfb5 70bd 454d a2be
00000060: 7061 69be 7002 aabe ff12 08be ef3d e6bd
00000070: 7b41 923c 83d4 0ebe 6cc2 883e 0a7d 83bd

conv2.weight f4 [64, 32, 3, 3]
0.15183301 0.15531646 -0.004006059 -0.18354143 -0.21494937 -0.13268766 -0.2767055 -0.1362129
0.023255873 0.03987561 0.06634306 -0.11845328 -0.18141803 -0.1951067 -0.062122706 -0.23532236
0.037078407 0.051678948 -0.13306859 -0.10779873 0.03128239 0.095068365 0.061157335 0.021528503
0.16778009 0.04313804 0.016322713 0.22352274 -0.14248252 -0.23245639 -0.19341463 -0.055524506
-0.20503867 -0.27324012 -0.4737924 -0.27140006 -0.12852685 -0.04491337 -0.11806755 -0.15151979
-0.067940675 0.049384583 0.035400104 0.048465557 0.060614258 0.19238915 0.34760323 0.36814272
-0.085497774 0.12647066 -0.06642385 -0.43655914 -0.5198557 -0.20435984 -0.09565255 0.059347972
0.041433137 -0.05508421 0.29202953 0.096829325 0.2753964 0.14996283 -0.19330716 0.2392955
0.039122283 -0.18923624 0.0657443 -0.023060786 -0.29753873 -0.38399208 -0.246304 0.11182287
0.029265039 0.058366943 -0.17663716 -0.3275414 -0.18816853 0.07095734 -0.06647708 0.17261939
-0.0075495117 0.35824043 -0.12298698 -0.3619035 0.29738826 -0.06978717 -0.4444162 -0.6562108
-0.37424722 -0.20376682 0.031956807 0.12501416 -0.17988512 -0.18052961 -0.20960942 0.06462588
0.08235435 0.104529865 -0.019599074 0.17909612 0.07972737 -0.2387142 -0.2796089 -0.2542491
-0.09008285 -0.17876944 0.10165906 0.06324208 -0.114614494 -0.0857218 -0.05644924 -0.08949116
-0.022771485 0.039151944 0.16974363 0.13578798 -0.038197715 0.060077235 0.21894409 -0.12565781
-0.12418618 -0.2987814 -0.06731828 -0.10168127 0.1736394 0.03438079 -0.21875387 -0.12835322
-0.25963163 -0.1799079 -0.03259163 0.086138666 0.09078391 0.10769431 0.10798269 -0.10668305
0.030989267 -0.35296774 -0.3551206 -0.45721397 -0.013550908 -0.13742603 0.09363995 0.11297392
-0.14704242 -0.12698735 -0.0024367555 0.18570496 0.072500125 -0.04730412 0.027164605 -0.006213593
-0.047986157 0.13926236 -0.053989474 -0.21501884 -0.1870242 0.025555754 0.09758687 -0.020876897
0.03021929 -0.015844025 -0.16651507 -0.06800795 0.04678964 0.09021992 0.10899139 0.037241593
0.17921935 0.100435875 -0.064004086 0.100933395 0.1555226 0.060241684 0.15071453 0.22146864
-0.053302735 -0.23472436 -0.30720285 0.032792754 0.109730855 0.060927916 -0.24822146 -0.22850128
-0.28561085 -0.044538666 -0.032585658 0.06537613 -0.040337745 -0.018876292 -0.1236674 -0.38370797
-0.43490392 -0.02198913 0.00622447 -0.033948362 -0.009606078 -0.06340866 0.16773912 0.08807355
-0.03632062 -0.06842033 -0.015931321 -0.16423307 -0.21995963 -0.046792768 -0.01934661 0.025769223
0.20270981 -0.09709712 -0.16870987 -0.3541819 -0.067944005 -0.19475007 0.1416721 0.113880545
-0.044407696 0.008630659 0.047415745 0.053865243 0.05284493 0.048964825 0.00755341 -0.0013460927
0.025462348 0.11091525 0.20326392 -0.07319327 -0.20941564 -0.1365847 -0.13856676 -0.25650063
-0.00014749594 0.058542494 -0.21432227 -0.20890617 -0.4182822 -0.37122464 -0.097071126 0.12196051
-0.0033767852 0.1201236 0.12363631 0.20711386 0.034933534 -0.20280528 0.12260381 -0.0125901755
-0.29367843 -0.42371997 -0.18111327 0.044730227 0.032833673 0.07959866 -0.15688218 -0.16216663
00000000: 1d7a 1b3e 470b 1f3e 4245 83bb 49f2 3bbe
00000010: b01b 5cbe 46df 07be 58ac 8dbe 657b 0bbe
00000020: 1a83 be3c 9c54 233d dfde 873d a297 f2bd
00000030: a6c5 39be 0dca 47be 6174 7ebd 58f8 70be
00000040: 87df 173d 4ead 533d 2243 08be 95c5 dcbd
00000050: f721 003d 34b3 c23d 1d80 7a3d 8b5c b03c
00000060: 8bce 2b3e 83b1 303d 36b7 853c 25e3 643e
00000070: f0e6 11be 0c09 6ebe 7c0e 46be aa6d 63bd
00000080: a8f5 51be 21e6 8bbe eb94 f2be f3f4 8abe
00000090: 8b9c 03be 15f7 37bd 66cd f1bd 0128 1bbe
000000a0: 7b24 8bbd 7d47 4a3d b3ff 103d d283 463d
000000b0: a846 783d a901 453e 0df9 b13e 347d bc3e
000000c0: 7519 afbd 8681 013e 3a09 88bd ae84 dfbe
000000d0: 4315 05bf b543 51be 7ce5 c3bd dc16 733d
000000e0: cbb5 293d fb9f 61bd e584 953e 744e c63d
000000f0: c200 8d3e db8f 193e 50f2 45be e109 753e
00000100: b03e 203d 25c7 41be f3a4 863d f9e9 bcbc
00000110: ff56 98be 9c9a c4be 1e37 7cbe 6403 e53d
00000120: 3cbd ef3c 2d12 6f3d 5fe0 34be 82b3 a7be
00000130: 40af 40be 1552 913d 2325 88bd 23c3 303e
00000140: e561 f7bb 4a6b b73e 99e0 fbbd 6a4b b9be
00000150: 4643 983e 93ec 8ebd 858a e3be 6efd 27bf
00000160: 559d bfbe 40a8 50be 24e5 023d b603 003e
00000170: ce33 38be c1dc 38be daa3 56be 935a 843d
00000180: 66a9 a83d c113 d63d 3d8e a0bc f964 373e
00000190: 1a48 a33d 7f71 74be e628 8fbe f02c 82be
000001a0: 5b7d b8bd 560f 37be a032 d03d 1085 813d
000001b0: 01bb eabd e98e afbd 5137 67bd 2447 b7bd
000001c0: 448b babc ca5d 203d 46d1 2d3e 010c 0b3e
000001d0: 3575 1cbd 8c13 763d e132 603e 71ac 00be
000001e0: 5355 febd e0f9 98be 2bde 89bd 453e d0bd
000001f0: 87ce 313e dfd2 0c3d 0401 60be 076f 03be
00000200: 70ee 84be c739 38be cd7e 05bd 7869 b03d
00000210: eaec b93d d68e dc3d 0726 dd3d a57c dabd
00000220: 34dd fd3c 30b8 b4be 5ed2 b5be f317 eabe
00000230: a104 5ebc 69b9 0cbe 4dc6 bf3d df5e e73d
00000240: 4a92 16be f908 02be f9b1 1fbb 7129 3e3e
00000250: f27a 943d f7c1 41bd 4e88 de3c 659b cbbb
00000260: 228d 44bd cb9a 0e3e 1124 5dbd e62d 5cbe
00000270: 4683 3fbe 4d5a d13c a0db c73d 0706 abbc
00000280: 728e f73c 54cb 81bc ed82 2abe c147 8bbd
00000290: 7ea6 3f3d 39c5 b83d e136 df3d a48a 183d
000002a0: 4785 373e 53b1 cd3d 9314 83bd 2bb6 ce3d
000002b0: 5141 1f3e fcbf 763d e954 1a3e adc8 623e
000002c0: f853 5abd 955b 70be b149 9dbe b251 063d
000002d0: 92ba e03d 8d8f 793d c42d 7ebe 3dfc 69be
000002e0: 963b 92be 2d6e 36bd 8a78 05bd ece3 853d
000002f0: 3139 25bd 74a2 9abc 5545 fdbd 5f75 c4be
00000300: baab debe 8c22 b4bc a4f6 cb3b 700d 0bbd
00000310: d062 1dbc 66dc 81bd cec3 2b3e e85f b43d
00000320: eec4 14bd f51f 8cbd 6782 82bc b72c 28be
00000330: 193d 61be c6a9 3fbd c87c 9ebc fa19 d33c
00000340: 2993 4f3e dbda c6bd 48c2 2cbe 5457 b5be
00000350: 3a26 8bbd 906c 47be 7e12 113e 343a e93d
00000360: d8e4 35bd 9c67 0d3c 0337 423d cda1 5c3d
00000370: ed73 583d 578f 483d 9882 f73b 606f b0ba
00000380: 6a96 d03c 8927 e33d 6b24 503e 5ae6 95bd
00000390: 0e71 56be dcdc 0bbe 72e4 0dbe 0d54 83be
000003a0: 24a9 1ab9 41ca 6f3d 4c77 5bbe 80eb 55be
000003b0: 1629 d6be 2811 bebe 3acd c6bd 6fc6 f93d
000003c0: 0e4d 5dbb 5d03 f63d 0935 fd3d a815 543e
000003d0: 7716 0f3d 30ac 4fbe b517 fb3d 0647 4ebc
000003e0: 055d 96be d3f1 d8be c275 39be 0b37 373d
000003f0: 9a7c 063d 9f04 a33d b9a5 20be 020f 26be

conv2.bias f4 [64]
-0.01910138 -0.039062656 -0.036158446 -0.026737822 -0.14597867 0.026752213 -0.047469888 -0.013432972
0.004707332 -0.081439 -0.01930833 -0.02155197 -0.08886918 -0.06662354 0.058039404 -0.04229729
0.031574834 -0.045139592 -0.00629855 0.02875103 -0.055074334 0.019190334 -0.050065827 -0.068519376
-0.07533532 -0.01958864 -0.051835787 -0.045109108 -0.12200326 -0.014479025 0.03720136 -0.016533252
0.045741785 -0.038401168 0.014538316 -0.016712114 -0.04385633 -0.044181462 -0.07473272 -0.0043377336
-0.031213934 0.003080132 0.0009919085 0.021762457 0.030441098 -0.04524696 -0.05088455 -0.036857348
0.043256663 0.050554357 -0.12787566 -0.009857867 0.025495796 -0.010207955 -0.031484574 -0.011131274
-0.052360024 -0.029757563 -0.062051207 -0.052212276 0.03628285 -0.072484516 0.060566954 0.0048999977
00000000: 7f7a 9cbc 2a00 20bd e11a 14bd 4709 dbbc
00000010: 6f7b 15be 7527 db3c c96f 42bd f815 5cbc
00000020: f63f 9a3b 7ec9 a6bd 812c 9ebc c28d b0bc
00000030: 0b01 b6bd ec71 88bd baba 6d3d ec3f 2dbd
00000040: 9d54 013d 4be4 38bd 1164 cebb 4887 eb3c
00000050: a095 61bd 0c35 9d3c d311 4dbd e353 8cbd
00000060: 6749 9abd 5b78 a0bc c351 54bd 54c4 38bd
00000070: d8dc f9bd 6f39 6dbc 7460 183d be70 87bc
00000080: bd5b 3b3d 8b4a 1dbd 1e32 6e3c d8e7 88bc
00000090: b2a2 33bd 9ff7 34bd 780d 99bd 8c23 8ebb
000000a0: 5db4 ffbc 0adc 493b ed02 823a 2e47 b23c
000000b0: 9c5f f93c e054 39bd 516c 50bd bbf7 16bd
000000c0: e62d 313d 1612 4f3d d6f1 02be e482 21bc
000000d0: 8fdc d03c 443f 27bc f8f5 00bd f25f 36bc
000000e0: 7777 56bd 22c6 f3bc 6829 7ebd 8adc 55bd
000000f0: 539d 143d c372 94bd 0e15 783d 2990 a03b

fc1.weight f4 [128, 1600]
-0.07299045 -0.09140911 -0.0040148436 -0.0067070588 0.01617032 0.07858389 -0.16801088 -5.599551e-05
0.2327519 0.10330239 0.12676327 0.09204095 0.16198824 0.013615126 -0.0932069 0.1633375
-0.016377082 0.0310462 0.121422924 0.13955253 0.071033366 0.11584616 0.021579716 -0.111151606
-0.114880845 -0.10175119 -0.059093848 0.09982237 0.13142668 0.0038327335 -0.12441203 0.0090655135
-0.03772601 0.30243394 -0.13153757 -0.19533567 0.004522073 0.007606451 0.14065512 -0.139146
-0.10821538 -0.0151651455 -0.017300226 0.1866928 -0.05671596 -0.029993866 0.04224041 0.20854178
0.13130842 -0.042988054 0.12308791 0.020783762 0.071944855 0.17606397 0.11429916 0.07860974
0.05467848 0.09772098 -0.08640261 -0.1574739 0.019110762 -0.047480468 0.027893826 -0.049164932
-0.099969454 -0.04337025 -0.20682326 -0.072232224 -0.16029376 -0.115168035 -0.15479235 -0.08631891
-0.028163921 -0.0079248445 -0.04418794 -0.00075955444 -0.06276797 -0.1307371 -0.022172155 0.02134118
0.12734504 0.06954069 0.088134035 0.010836296 0.15418525 -0.049680375 -0.07942223 -0.082159
0.044192266 0.11189902 0.10973005 -0.013272409 -0.013864104 -0.009642399 -0.005748908 0.026001561
-0.054071035 0.08995807 0.006611377 0.039533515 -0.08280444 -0.06519315 -0.027662162 0.037301235
0.004610452 -0.011437947 0.013226901 0.05730891 -0.11758838 0.0040974976 0.15756255 0.0033779752
0.041260988 -0.015853535 0.008020232 -0.005344276 0.021214211 0.0054419558 -0.013818431 -0.04618588
0.049365714 0.034240343 0.015791932 0.012381801 -0.1588556 -0.0029034324 -0.0059181186 -0.045294903
0.023879392 0.041556504 0.07594643 -0.011347842 0.051720057 0.033289507 0.03658193 0.082972266
-0.067503646 0.06432544 0.13419089 -0.019190855 0.012884972 -0.015332668 0.09987686 -0.0014523745
-0.09365657 -0.0053238343 0.00092121883 0.017068965 -0.15525493 -0.21218121 -0.030677505 0.038259186
0.0054441667 -0.04555862 -0.12495178 0.09198254 0.12334282 0.07235165 -0.01087612 -0.08457901
0.047289338 -0.00026023295 -0.009435335 -0.007290209 0.0927877 -0.09844029 -0.11293302 -0.17443638
-0.13611405 -0.08920611 -0.22752398 -0.108893104 -0.1569865 -0.056062628 -0.061355755 0.013555959
-0.13911071 -0.065360695 0.019826839 0.042620633 0.048291005 -0.026288956 0.0012322804 0.07648485
0.050691444 0.10456806 0.11533234 -0.033610422 0.16859557 0.04863031 0.1513333 0.06504643
-0.007904093 -0.08326283 0.009850274 -0.07794027 -0.110750526 -0.17013265 -0.11233001 -0.0740738
-0.029303255 -0.13948381 -0.058107864 -0.020833634 0.10713741 0.059566326 -0.08263283 0.013820612
-0.06628126 -0.03237091 0.121503174 -0.056070764 0.016922666 -0.059552506 0.05270606 0.0584986
0.15533684 0.0964709 -0.04530718 0.14797325 0.03109321 -0.027974045 -0.14379314 -0.22081386
-0.29895788 -0.01753222 -0.0674949 -0.12455158 -0.021886457 -0.012768992 0.07147834 -0.17786716
0.09097242 0.12956592 0.18281123 0.19592582 0.111533225 0.15665306 0.04057572 -0.07689182
0.14339262 0.00012663032 -0.13127172 -0.14003299 -0.09198124 0.051681455 -0.092243366 -0.11113904
-0.1557492 -0.14152314 0.023145318 0.037318565 0.01812712 -0.0015014122 -0.045063503 0.021726536
00000000: 047c 95bd b334 bbbd f38e 83bb e3c6 dbbb
00000010: 9e77 843c 97f0 a03d 0b0b 2cbe b9dc 6ab8
00000020: 8456 6e3e 3490 d33d 3bce 013e f77f bc3d
00000030: 3fe0 253e fa11 5f3c 42e3 bebd f241 273e
00000040: 3b29 86bc 9a54 fe3c 95ac f83d dce6 0e3e
00000050: f179 913d c040 ed3d f2c7 b03c 74a3 e3bd
00000060: a646 ebbd ee62 d0bd 640c 72bd ac6f cc3d
00000070: b794 063e 992e 7b3b bccb febd 8587 143c
00000080: 9786 1abd 9fd8 9a3e c9b1 06be 1306 48be
00000090: e62d 943b 893f f93b e507 103e 4a7c 0ebe
000000a0: 06a0 ddbd 3b77 78bc 34b9 8dbc 662c 3f3e
000000b0: ff4e 68bd b2b5 f5bc 4804 2d3d fa8b 553e
000000c0: b775 063e 3e14 30bd 8415 fc3d b542 aa3c
000000d0: d357 933d 1d4a 343e ae15 ea3d 25fe a03d
000000e0: 8bf6 5f3d f021 c83d daf3 b0bd d740 21be
000000f0: 2c8e 9c3c e17a 42bd 9881 e43c 2b61 49bd
00000100: c9bc ccbd 01a5 31bd 7ac9 53be 7dee 93bd
00000110: 0c24 24be 38dd ebbd e381 1ebe f8c7 b0bd
00000120: 06b8 e6bc 35d7 01bc 6afe 34bd d61c 47ba
00000130: 7e8c 80bd f2df 05be 61a2 b5bc b3d3 ae3c
00000140: bd66 023e 596b 8e3d 9e7f b43d b88a 313c
00000150: bde2 1d3e a67d 4bbd 1fa8 a2bd fa42 a8bd
00000160: f302 353d 502b e53d 26ba e03d 8574 59bc
00000170: 4426 63bc 27fb 1dbc 5661 bcbb 3a01 d53c
00000180: 9779 5dbd f03b b83d 40a4 d83b e5ed 213d
00000190: 6095 a9bd fc83 85bd c29b e2bc 2ec9 183d
000001a0: 4613 973b 3a66 3bbc a5b5 583c bfbc 6a3d
000001b0: 2dd2 f0bd 4d44 863b 1458 213e 0561 5d3b
000001c0: 4801 293d 46df 81bc 4b67 033c 091f afbb
000001d0: 6dc9 ad3c 6f52 b23b b366 62bc 682d 3dbd
000001e0: b433 4a3d 9a3f 0c3d 155e 813c 0add 4a3c
000001f0: 0bab 22be 8347 3ebb c7ec c1bb 2687 39bd
00000200: b79e c33c 2737 2a3d cd89 9b3d 4dec 39bc
00000210: 69d8 533d 945a 083d efd6 153d 5ded a93d
00000220: 5a3f 8abd 0ebd 833d 5669 093e 2436 9dbc
00000230: 7d1b 533c df35 7bbc 3d8c cc3d 9a5d beba
00000240: 04cf bfbd 8f73 aebb f37d 713a 37d4 8b3c
00000250: 26fb 1ebe 0846 59be 644f fbbc aab5 1c3d
00000260: fb64 b23b ad9b 3abd b8e6 ffbd 5861 bc3d
00000270: 299b fc3d 1a2d 943d c131 32bc c337 adbd
00000280: 77b2 413d e06f 88b9 aa96 1abc b5e2 eebb
00000290: 7a07 be3d 109b c9bd 6d49 e7bd 739f 32be
000002a0: 7b61 0bbe b1b1 b6bd 0cfc 68be 5903 dfbd
000002b0: 12c1 20be eda1 65bd 2c50 7bbd d019 5e3c
000002c0: 0a73 0ebe d4db 85bd e56b a23c f992 2e3d
000002d0: cacc 453d f05b d7bc 7884 a13a 17a4 9c3d
000002e0: d5a1 4f3d c727 d63d 5d33 ec3d 15ab 09bd
000002f0: 51a4 2c3e 9330 473d 1ef7 1a3e 1037 853d
00000300: 2b80 01bc b485 aabd 0b63 213c 269f 9fbd
00000310: 2cd1 e2bd 4137 2ebe 470d e6bd 01b4 97bd
00000320: 610d f0bc d8d4 0ebe 8302 6ebd 4cab aabc
00000330: dc6a db3d d2fb 733d 673b a9bd d96f 623c
00000340: 78be 87bd 5c97 04bd a8d6 f83d 75aa 65bd
00000350: 67a1 8a3c 54ed 73bd 4fe2 573d 3a9c 6f3d
00000360: 9f10 1f3e 8992 c53d 0694 39bd 4d86 173e
00000370: 30b7 fe3c d329 e5bc 823e 13be 071d 62be
00000380: 0211 99be bb9f 8fbc c43a 8abd e614 ffbd
00000390: 3a4b b3bc 0935 51bc 3c63 923d cf22 36be
000003a0: c04f ba3d eeac 043e de32 3b3e c7a0 483e
000003b0: 886b e43d a969 203e ba32 263d 7579 9dbd
000003c0: 84d5 123e 11c8 0439 186c 06be cf64 0fbe
000003d0: a960 bcbd efaf 533d 17ea bcbd dd9c e3bd
000003e0: b87c 1fbe 71eb 10be 409b bd3c 5adb 183d
000003f0: 537f 943c 09cb c4ba 8294 38bd d9fb b13c

fc1.bias f4 [128]
0.06725531 -0.015578844 -0.019084575 -0.027923822 -0.020863933 -0.014033406 -0.021618709 -0.021572229
0.07860479 -0.044947866 0.0039563403 0.01970051 0.011298231 0.0040712324 0.005049746 -0.01258466
0.006236935 -0.05650119 0.02032857 -0.056040417 -0.047535848 0.008668223 -0.041564725 -0.0009410018
0.0036802122 -0.008137113 0.064401835 0.06700724 2.3327786e-06 -0.017682597 0.06406082 0.00054588285
-0.019758923 -0.014087831 0.0070958245 0.023694882 -0.026465014 -0.0016458317 0.0057376707 -0.003318544
-0.016244387 -0.09302348 -0.0644921 0.044183917 0.011065125 0.0015934936 0.07017772 -0.025296021
0.04896786 0.043005772 0.0020006278 -0.02936175 -0.035537183 -0.069066234 -0.032832984 0.0007105235
-0.03507386 0.014604659 0.0009757977 -0.041419134 0.02765581 0.08530092 -0.012125892 0.013790918
-0.034937456 -0.0033654897 0.030348256 -0.017047627 -0.05174789 0.06853427 0.004461124 0.01697646
0.049313903 -0.02393032 -0.08993491 -0.01171015 -0.015593415 0.043430533 -0.02704513 -0.030194407
-0.0006033139 -0.010981511 0.013058447 0.010678489 -0.013961019 0.069588356 -0.035419583 0.006362277
-0.017025113 -0.0129892975 -0.032414746 0.017632931 -0.028058285 0.036684208 -0.0010980596 -0.01448963
0.025009645 -0.058684967 -0.03213557 0.02173453 -0.02473222 0.007614765 0.015540611 0.021902123
-0.0007437189 -0.019849371 -0.05750712 0.017935695 0.011639075 -0.030263767 0.021588055 -0.016743513
-0.0033459489 -0.060364496 -0.0006181426 -0.045562264 -0.07483345 -0.029464684 0.035616048 0.051711097
0.013533083 0.010524356 -0.018261882 0.057636406 -0.033936273 0.0056041623 0.031263255 0.08998627
00000000: 27bd 893d 683e 7fbc 4157 9cbc 80c0 e4bc
00000010: d7ea aabc 5fec 65bc b819 b1bc 3eb8 b0bc
00000020: 8cfb a03d 411b 38bd 30a4 813b f762 a13c
00000030: 371c 393c f967 853b 5778 a53b e42f 4ebc
00000040: 345f cc3b cb6d 67bd 1a88 a63c a38a 65bd
00000050: f3b4 42bd 2a05 0e3c c63f 2abd 90ad 76ba
00000060: b72f 713b 8751 05bc 1ce5 833d 183b 893d
00000070: d58c 1c36 18db 90bc 5232 833d 9419 0f3a
00000080: 77dd a1bc a5d0 66bc 1784 e83b c51b c23c
00000090: 28cd d8bc f3b8 d7ba 1203 bc3b ee7b 59bb
000000a0: f312 85bc 1883 bebd 6f14 84bd 32fa 343d
000000b0: 804a 353c c6dc d03a 56b9 8f3d 9a39 cfbc
000000c0: 8692 483d d226 303d f71c 033b 0e88 f0bc
000000d0: 708f 11bd 9972 8dbd e17b 06bd 6d42 3a3a
000000e0: 9ca9 0fbd 6148 6f3c adcc 7f3a 1ca7 29bd
000000f0: 708e e23c 40b2 ae3d adab 46bc 4df3 613c
00000100: 941a 0fbd 8c8f 5cbb e89c f83c 77a7 8bbc
00000110: 98f5 53bd b25b 8c3d 9f2e 923b 3812 8b3c
00000120: 60fd 493d 8509 c4bc cb2f b8bd eedb 3fbc
00000130: 867b 7fbc 37e4 313d c08d ddbc 435a f7bc
00000140: b627 1eba cceb 33bc 19f3 553c d4f4 2e3c
00000150: c2bc 64bc 5784 8e3d 2014 11bd a67a d03b
00000160: 4078 8bbc 10d1 54bc 53c5 04bd f072 903c
00000170: 7dda e5bc 2e42 163d c4ec 8fba ea65 6dbc
00000180: 07e1 cc3c a65f 70bd 96a0 03bd 9d0c b23c
00000190: 3a9b cabc 4785 f93b 0c9e 7e3c 156c b33c
000001a0: 21f6 42ba 269b a2bc 968c 6bbd e1ed 923c
000001b0: d2b1 3e3c b8eb f7bc 6fd9 b03c b129 89bc
000001c0: b547 5bbb c340 77bd d90a 22ba 7f9f 3abd
000001d0: 4842 99bd ec5f f1bc 22e2 113d 04cf 533d
000001e0: ddb9 5d3c 596e 2c3c f199 95bc 2714 6c3d
000001f0: c300 0bbd 1fa3 b73b e60d 003d b94a b83d

fc2.weight f4 [10, 128]
-0.09174611 0.07368289 -0.035194535 -0.3431576 0.058107123 0.06973852 -0.09140289 -0.25477687
-0.009211601 -0.2555441 -0.08426291 -0.08332394 0.04825543 -0.02338897 -0.11911561 0.18040253
0.15059727 -0.21250294 -0.1643088 -0.0020437003 0.05581345 0.08332846 -0.33754134 -0.03405736
-0.10031993 -0.051747046 0.062000524 -0.32761386 -0.07546832 -0.046432316 -0.08020554 -0.062665306
-0.20781237 -0.09234198 0.02022824 -0.012957941 -0.10662043 0.062951565 -0.03346065 0.007918714
0.1742985 -0.051059052 0.007544984 0.20125912 0.09813555 -0.076310225 0.13354692 0.03682036
-0.0031799397 0.12553039 0.025579836 0.07801888 0.066364884 -0.004107847 -0.0017996763 -0.15601891
0.14090967 -0.04237607 -0.07010137 -0.16227342 -0.060274582 -0.12506866 0.0038287754 -0.2980825
0.07638739 -0.17556928 -0.03944412 -0.064675495 -0.062170118 0.080869325 -0.050138928 0.055709116
-0.022934062 0.0072302464 0.047741532 -0.056607764 -0.06645738 -0.06571976 -0.030876081 -0.029765453
0.035458017 0.08277778 -0.27451852 -0.2852026 -0.007298381 0.17993993 -0.032691356 -0.07102059
-0.07260821 -0.22488223 -0.09423206 0.05614145 0.059975166 0.1762955 0.0679061 0.02140716
0.0020877197 0.099269286 -0.0006941806 0.14818913 -0.18870437 -0.18236455 -0.062307075 0.14596747
-0.08012539 0.075015955 -0.17524023 -0.185513 0.08707096 -0.23322982 0.14288159 0.0838425
-0.023407059 -0.055632275 0.19330102 -0.18578736 -0.24331947 -0.04230905 0.0996769 0.053194184
-0.049811907 0.030779528 0.014825672 -0.032041684 -0.25013852 0.017152388 0.06751633 0.22772005
0.18611133 -0.17255557 0.023623561 0.14016448 0.06203366 -0.035652585 -0.15519379 -0.12988655
0.10877051 0.10267415 0.016435461 -0.14512159 -0.042900857 0.0056274324 0.0828163 0.1228547
0.049015786 -0.33493924 0.077003434 -0.28450522 -0.13762315 -0.21236664 0.010356287 0.013757308
0.023052245 0.029231891 0.029476628 0.0748441 -0.007946625 -0.1732587 0.08515344 0.023414789
0.032859433 -0.09476701 -0.052713312 -0.23689649 0.025076365 -0.1869632 -0.002104488 -0.0466451
-0.34750646 -0.09594103 0.066001885 0.22082864 -0.15879369 -0.03765914 -0.034894668 -0.0011338461
0.05390528 0.14300103 0.027930925 0.12893867 -0.20522447 -0.326521 -0.06857137 0.025130985
-0.16877921 -0.052530102 -0.053369384 -0.03023698 0.078164645 0.15739956 0.025997808 0.010841758
-0.01687737 0.043153223 0.012636146 -0.26600426 -0.06110516 -0.09600296 -0.070894174 0.092636436
0.06325561 -0.06800246 0.004848552 -0.249578 0.19980618 0.0889585 -0.066230126 -0.03699468
0.030128414 -0.14457995 0.033897586 0.14083815 -0.007856057 0.15371789 0.06011139 0.081491545
-0.04955399 0.12607244 0.042371955 -0.055766653 -0.03285796 0.12780626 -0.03062926 0.02522478
-0.16718389 -0.10814253 0.06071141 0.07435461 0.18208049 -0.17912368 -0.007194358 -0.023960948
0.06318795 -0.03439473 0.019389056 0.08478947 0.034706373 0.07001788 -0.028902423 0.048609268
-0.033239804 -0.035216965 0.12188525 -0.06219923 -0.16898382 -0.075047664 -0.07415692 0.13419464
-0.08967053 -0.007838029 -0.09539756 0.12781632 -0.17027344 -0.2322615 0.008133848 0.18277448
00000000: 62e5 bbbd 0ee7 963d 2528 10bd 5ab2 afbe
00000010: bc01 6e3d 12d3 8e3d 7031 bbbd 1d72 82be
00000020: 41ec 16bc add6 82be 0892 acbd bea5 aabd
00000030: 7ca7 453d 3a9a bfbc e3f2 f3bd 71bb 383e
00000040: 2c36 1a3e 5f9a 59be 9140 28be 9aef 05bb
00000050: a59c 643d 1da8 aa3d 38d2 acbe bb7f 0bbd
00000060: 8974 cdbd b6f4 53bd 43f4 7d3d 01bd a7be
00000070: 228f 9abd d02f 3ebd cd42 a4bd ab56 80bd
00000080: c4cc 54be cb1d bdbd b2b5 a53c 8b4d 54bc
00000090: d05b dabd c0ec 803d 090e 09bd 7ebd 013c
000000a0: 4e7b 323e 4c23 51bd ea3b f73b df16 4e3e
000000b0: 4bfb c83d 8948 9cbd 86c0 083e f2d0 163d
000000c0: 8966 50bb 0a8b 003e ce8c d13c 5dc8 9f3d
000000d0: 50ea 873d 1e9b 86bb 1ee3 ebba 6cc3 1fbe
000000e0: a04a 103e 8892 2dbd 4f91 8fbd 012b 26be
000000f0: 7be2 76bd 0012 00be 31ec 7a3b 459e 98be
00000100: fe70 9c3d 6fc8 33be 2890 21bd 9674 84bd
00000110: 18a6 7ebd d19e a53d 7a5e 4dbd 3e2f 643d
00000120: 37e0 bbbc b4eb ec3b a08c 433d 8bdd 67bd
00000130: cf1a 88bd 1598 86bd d6ef fcbc aed6 f3bc
00000140: 6d3c 113d 6687 a93d b18d 8cbe 1306 92be
00000150: 4227 efbb 2c42 383e 5fe7 05bd 3e73 91bd
00000160: 9db3 94bd 8747 66be bdfc c0bd 94f4 653d
00000170: 85a8 753d cf86 343e 5a12 8b3d 125e af3c
00000180: 20d2 083b b24d cb3d acf9 35ba e4be 173e
00000190: b83b 41be c6bd 3abe b435 7fbd 7f78 153e
000001a0: c818 a4bd f7a1 993d 2d72 33be 1ff7 3dbe
000001b0: 4252 b23d ccd3 6ebe 8d4f 123e 9eb5 ab3d
000001c0: 29c0 bfbc abde 63bd b4f0 453e 0b3f 3ebe
000001d0: bd28 79be 414c 2dbd 6723 cc3d 25e2 593d
000001e0: 9207 4cbd 5925 fc3c 60e7 723c 243e 03bd
000001f0: 2812 80be 2a83 8c3c 0046 8a3d 722f 693e
00000200: f893 3e3e 68b2 30be 3386 c13c 4787 0f3e
00000210: 0217 7e3d 7208 12bd 1feb 1ebe fb00 05be
00000220: 13c3 de3d d346 d23d a9a3 863c c19a 14be
00000230: cfb8 2fbd 5366 b83b 989b a93d 3f9b fb3d
00000240: c7c4 483d 287d abbe fab3 9d3d abaa 91be
00000250: 15ed 0cbe a476 59be 6aad 293c 5566 613c
00000260: 10d8 bc3c b877 ef3c f878 f13c dd47 993d
00000270: 9032 02bc bb6a 31be ed64 ae3d 5fd0 bf3c
00000280: 9d97 063d 3515 c2bd eae9 57bd fe94 72be
00000290: f36c cd3c 4873 3fbe 73eb 09bb ef0e 3fbd
000002a0: 5eec b1be bb7c c4bd ff2b 873d e720 623e
000002b0: d09a 22be 7840 1abd b6ed 0ebd 909d 94ba
000002c0: c8cb 5c3d dd6e 123e 65cf e43c 8008 043e
000002d0: 5d26 52be c32d a7be 256f 8cbd 7fdf cd3c
000002e0: 75d4 2cbe ce29 57bd db99 5abd 8bb3 f7bc
000002f0: c914 a03d 5a2d 213e 5bf9 d43c a1a1 313c
00000300: 6942 8abc 6fc1 303d d607 4f3c b631 88be
00000310: 6749 7abd 339d c4bd f730 91bd 2cb8 bd3d
00000320: 288c 813d e044 8bbd 9ae0 9e3b 6091 7fbe
00000330: fe99 4c3e e02f b63d a9a3 87bd bc87 17bd
00000340: ddcf f63c c40c 14be 32d8 0a3d e037 103e
00000350: b1b6 00bc 3968 1d3e 5c37 763d 0ae5 a63d
00000360: 20f9 4abd 2219 013e 378e 2d3d 936b 64bd
00000370: 1196 06bd a5df 023e 37ea fabc 33a4 ce3c
00000380: 4132 2bbe d579 ddbd 87ac 783d 3b47 983d
00000390: 4f73 3a3e 336c 37be a6be ebbb c049 c4bc
000003a0: af68 813d 7de1 0cbd ccd5 9e3c 1aa6 ad3d
000003b0: 4528 0e3d 8965 8f3d c6c4 ecbc 831a 473d
000003c0: 7626 08bd aa3f 10bd f99e f93d 9fc4 7ebd
000003d0: 180a 2dbe 97b2 99bd 95df 97bd 526a 093e
000003e0: 2fa5 b7bd 146b 00bc cc5f c3bd 48e2 023e
000003f0: 295c 2ebe f5d5 6dbe d543 053c 3c29 3b3e

fc2.bias f4 [10]
0.114723876 0.081019945 0.03567581 -0.05129803 -0.09416237 0.010869321 -0.034596182 -0.10162531
0.06415121 -0.057041135
00000000: 5af4 ea3d c9ed a53d cc20 123d e21d 52bd
00000010: 33d8 c0bd 3d15 323c bab4 0dbd ee20 d0bd
00000020: b661 833d f7a3 69bd
